trained model/converted_model.tflite (tflite, 79308 bytes, 5 tensors)

lstm_11/lstm_cell_11/bias f4 [256]
-0.020040972 -0.006425455 0.033350363 0.07126021 -0.0026116644 0.0132128205 0.013524852 0.0
0.07579122 0.0 0.10771888 0.032012053 0.0 0.014375011 -0.026088398 0.021568898
0.12242437 -0.01109654 0.18626352 -0.026202552 0.009965027 0.1120417 -0.0063863755 0.010100794
0.020073969 0.0 0.06374681 0.011719922 0.049771234 0.0 0.01411993 0.014525016
0.012016754 0.23750268 -0.011717604 0.3459769 0.3934251 0.016404642 0.36520344 0.07977402
-0.0003859359 0.0 0.0 0.006705147 0.011345317 0.05536694 0.32578114 0.14151363
0.0072026597 -0.00721678 -0.0044784397 0.007601028 0.05266623 -0.0010662479 -0.015069096 0.24234855
0.07794166 0.0 -0.009890657 0.009614449 -0.000102695536 -7.5806e-05 0.06713525 0.04383344
0.97876185 0.99728084 1.0730487 1.1392472 0.99831486 1.0332248 1.0453223 1.0
0.9498079 1.0 1.1008731 1.0421274 1.0 1.0370787 0.9765129 1.0482496
1.0080363 0.99572235 1.0862459 0.9781624 1.0313722 1.1204641 0.99329805 1.03273
1.0432004 1.0 1.0781711 1.0310205 0.93201417 1.0 0.94469154 1.034369
1.0268589 1.2100499 0.98938066 1.3346642 1.3925811 1.0397223 1.3476826 0.98008853
1.000104 1.0 1.0 1.033663 1.0289444 1.032941 1.3329662 0.9771283
1.0272114 1.0022441 0.9967524 1.0313687 1.1078577 1.0 0.99435097 1.2341374
1.0014598 1.0 0.98872465 1.0332937 0.9998336 0.99908453 1.003104 1.0179901
-0.017717076 -0.0033183729 0.014249531 0.00614105 -0.008136057 0.0162267 0.018291939 0.0
0.043188423 0.0 0.08910474 0.05982968 0.0 0.019864436 -0.030728055 0.0076619587
-0.0132962465 -0.009746028 0.008628554 -0.021410719 0.015426258 0.034470264 -0.0034882186 0.011082059
0.022946663 0.0 0.048984136 0.016370121 -0.0005981845 0.0 -0.0049961642 0.02247866
0.00845813 -0.0024972337 -0.013266943 -0.015393677 -0.004463977 0.009339397 0.0010180722 0.0751279
-0.02744201 0.0 0.0 0.021717133 0.008033368 0.060003176 -0.0044076303 0.0046586795
0.017868752 0.0063032308 -0.010602846 0.01608045 0.031439766 -0.030023653 -0.020059464 -0.014943153
-0.0002795759 0.0 -0.010921911 0.01525902 -0.025695868 -0.018567206 -0.011956519 -0.04076013
-0.020021467 -0.0066577303 0.033595257 0.07279591 -0.0026458076 0.013688956 0.015793769 0.0
0.07548641 0.0 0.10824737 0.03186174 0.0 0.011241704 -0.025809873 0.020101042
0.1201326 -0.011134226 0.18700075 -0.026185144 0.011135369 0.11420482 -0.006452748 0.011624638
0.019415814 0.0 0.06401619 0.013591301 0.048956137 0.0 0.014303864 0.013412866
0.013610692 0.245521 -0.011692465 0.3762298 0.42743713 0.016051408 0.40777722 0.07942752
-0.00038684704 0.0 0.0 0.008955581 0.009345122 0.056254428 0.35542744 0.14354609
0.0042043906 -0.005308721 -0.0044179535 0.008073845 0.0549026 -0.0010597046 -0.015069392 0.2556987
0.066567086 0.0 -0.009892669 0.0122023 -0.000103640145 -7.677042e-05 0.068311855 0.047480304
00000000: f72c a4bc a08c d2bb 649a 083d dff0 913d
00000010: 7528 2bbb 967a 583c 5797 5d3c 0000 0000
00000020: 6d38 9b3d 0000 0000 b79b dc3d 121f 033d
00000030: 0000 0000 2b85 6b3c 56b7 d5bc 42b1 b03c
00000040: a1b9 fa3d 43ce 35bc ddbb 3e3e bca6 d6bc
00000050: 5a44 233c 1e76 e53d cd44 d1bb cd7d 253c
00000060: 2a72 a43c 0000 0000 b08d 823d ea04 403c
00000070: ecdc 4b3d 0000 0000 4757 673c 55fa 6d3c
00000080: ebe1 443c e733 733e 31fb 3fbc e223 b13e
00000090: 046f c93e 0763 863c f2fb ba3e 9060 a33d
000000a0: 7157 cab9 0000 0000 0000 0000 dab6 db3b
000000b0: b5e1 393c 72c8 623d c9cc a63e f3e8 103e
000000c0: 4a04 ec3b bd7a ecbb e0bf 92bb 0b12 f93b
000000d0: 8bb8 573d 58c1 8bba 5fe4 76bc 382a 783e
000000e0: e19f 9f3d 0000 0000 6c0c 22bc ec85 1d3c
000000f0: 3f5e d7b8 09fa 9eb8 357e 893d b18a 333d
00000100: 2390 7a3f cc4d 7f3f a959 893f dad2 913f
00000110: 9091 7f3f b640 843f 1fcd 853f 0000 803f
00000120: 9c26 733f 0000 803f 69e9 8c3f 6e64 853f
00000130: 0000 803f ffbe 843f c0fc 793f 0b2d 863f
00000140: 5507 813f a9e7 7e3f 1b0a 8b3f da68 7a3f
00000150: 0104 843f 5e6b 8f3f c848 7e3f 7f30 843f
00000160: 9787 853f 0000 803f 8301 8a3f 7bf8 833f
00000170: 7b98 6e3f 0000 803f 4ed7 713f 3466 843f
00000180: 1d70 833f eae2 9a3f 0d48 7d3f 47d6 aa3f
00000190: 1940 b23f 9f15 853f dd80 ac3f 15e7 7a3f
000001a0: 6803 803f 0000 803f 0000 803f 124f 843f
000001b0: 73b4 833f 6937 843f a39e aa3f 1525 7a3f
000001c0: aa7b 833f 8949 803f 2a2b 7f3f e403 843f
000001d0: 48ce 8d3f 0000 803f c98d 7e3f 37f8 9d3f
000001e0: d62f 803f 0000 803f 0f1d 7d3f f842 843f
000001f0: 18f5 7f3f 01c4 7f3f b665 803f 804d 823f
00000200: 6723 91bc 0f79 59bb dd76 693c dc3a c93b
00000210: 194d 05bc dbed 843c fad8 953c 0000 0000
00000220: 58e6 303d 0000 0000 8c7c b63d f70f 753d
00000230: 0000 0000 beba a23c 67b9 fbbc 2b11 fb3b
00000240: 80d8 59bc cead 1fbc c75e 0d3c 8865 afbc
00000250: 6abe 7c3c b130 0d3d 999a 64bb 8691 353c
00000260: a4fa bb3c 0000 0000 97a3 483d a21a 863c
00000270: 7bcf 1cba 0000 0000 ddb6 a3bb 2b25 b83c
00000280: f893 0a3c a1a8 23bb 985d 59bc c335 7cbc
00000290: 8e46 92bb 4504 193c d670 853a a8dc 993d
000002a0: 11ce e0bc 0000 0000 0000 0000 21e8 b13c
000002b0: 639e 033c e4c5 753d e26d 90bb d6a7 983b
000002c0: 7d61 923c 558b ce3b 8fb7 2dbc 26bb 833c
000002d0: fcc6 003d 2af4 f5bc bf53 a4bc 20d4 74bc
000002e0: 0b94 92b9 0000 0000 d1f1 32bc f800 7a3c
000002f0: 2480 d2bc 411a 98bc 47e5 43bc 18f4 26bd
00000300: 0f04 a4bc 1729 dabb 2e9b 093d 0616 953d
00000310: 4965 2dbb a547 603c ef61 813c 0000 0000
00000320: 9e98 9a3d 0000 0000 ccb0 dd3d 7581 023d
00000330: 0000 0000 202f 383c 3a6f d3bc f1aa a43c
00000340: 1508 f63d 546c 36bc 207d 3f3e 3a82 d6bc
00000350: 1f71 363c 37e4 e93d 9371 d3bb 4475 3e3c
00000360: ea0d 9f3c 0000 0000 ec1a 833d 0cae 5e3c
00000370: 3b86 483d 0000 0000 c15a 6a3c a3c1 5b3c
00000380: 61ff 5e3c db69 7b3e c191 3fbc 31a1 c03e
00000390: 0ad9 da3e 3e7e 833c 2dc8 d03e e5aa a23d
000003a0: bbd1 cab9 0000 0000 0000 0000 6eba 123c
000003b0: 481c 193c 0b6b 663d 96fa b53e bffd 123e
000003c0: fcc4 893b c8f4 adbb 7bc4 90bb 2948 043c
000003d0: 8ce1 603d c9e5 8aba 9ce5 76bc f1ea 823e
000003e0: 5354 883d 0000 0000 dc14 22bc 28ec 473c
000003f0: 6159 d9b8 ceff a0b8 16e7 8b3d b57a 423d

sequential_11/dense_11/MatMul f4 [1, 64]
-0.09991719 -0.23095626 0.260991 -0.032036263 0.25598252 0.24353272 0.27578446 -0.053331435
0.008088719 0.16490823 -0.023952117 -0.11313208 0.08319116 0.25269854 -0.07187524 0.15422659
-0.31585896 0.1829231 0.0009077608 -0.034276254 0.12770246 0.01503145 -0.009246671 0.14650245
0.32129496 -0.13599698 -0.09359434 0.07711056 -0.25015137 0.06249121 0.2618587 0.27414048
0.0032300598 -0.2438894 -0.06508217 -0.14477187 0.02242415 0.11199853 0.07871072 0.07101388
-0.18559217 -0.2729935 0.013641864 0.24280547 0.07365384 0.21437155 -0.035807196 -0.2933797
0.17553319 0.026628159 -0.030095106 0.21952541 0.19998357 0.043846842 0.043399513 -0.10182355
-0.22764438 0.10033956 -0.010602619 0.21915787 0.16307619 0.20100246 -0.10038004 -0.16202387
00000000: 62a1 ccbd cc7f 6cbe 9da0 853e 7538 03bd
00000010: 2410 833e a460 793e 9f33 8d3e 1072 5abd
00000020: 8c86 043c b4dd 283e 3b37 c4bc cbb1 e7bd
00000030: 2060 aa3d b461 813e 5333 93bd 93ed 1d3e
00000040: 44b8 a1be 3150 3b3e ccf6 6d3a 4265 0cbd
00000050: 6fc4 023e 7946 763c 597f 17bc bd04 163e
00000060: c680 a43e cb42 0bbe 64ae bfbd 24ec 9d3d
00000070: d713 80be c8f6 7f3d 5812 863e 245c 8c3e
00000080: 69af 533b 25be 79be cd49 85bd 143f 14be
00000090: dab2 b73c 7c5f e53d 1633 a13d ba6f 913d
000000a0: e00b 3ebe cec5 8bbe 2082 5f3c ffa1 783e
000000b0: d3d7 963d 3784 5b3e 91aa 12bd dd35 96be
000000c0: f9be 333e 4c23 da3c 038a f6bc 45cb 603e
000000d0: 7ec8 4c3e bf98 333d b0c3 313d de88 d0bd
000000e0: 9c1b 69be d47e cd3d 9bb6 2dbc ec6a 603e
000000f0: 72fd 263e 97d3 4d3e 0d94 cdbd 96e9 25be

lstm_11/lstm_cell_11/bias1 f4 [256]
-0.020040972 -0.006425455 0.033350363 0.07126021 -0.0026116644 0.0132128205 0.013524852 0.0
0.07579122 0.0 0.10771888 0.032012053 0.0 0.014375011 -0.026088398 0.021568898
0.12242437 -0.01109654 0.18626352 -0.026202552 0.009965027 0.1120417 -0.0063863755 0.010100794
0.020073969 0.0 0.06374681 0.011719922 0.049771234 0.0 0.01411993 0.014525016
0.012016754 0.23750268 -0.011717604 0.3459769 0.3934251 0.016404642 0.36520344 0.07977402
-0.0003859359 0.0 0.0 0.006705147 0.011345317 0.05536694 0.32578114 0.14151363
0.0072026597 -0.00721678 -0.0044784397 0.007601028 0.05266623 -0.0010662479 -0.015069096 0.24234855
0.07794166 0.0 -0.009890657 0.009614449 -0.000102695536 -7.5806e-05 0.06713525 0.04383344
0.97876185 0.99728084 1.0730487 1.1392472 0.99831486 1.0332248 1.0453223 1.0
0.9498079 1.0 1.1008731 1.0421274 1.0 1.0370787 0.9765129 1.0482496
1.0080363 0.99572235 1.0862459 0.9781624 1.0313722 1.1204641 0.99329805 1.03273
1.0432004 1.0 1.0781711 1.0310205 0.93201417 1.0 0.94469154 1.034369
1.0268589 1.2100499 0.98938066 1.3346642 1.3925811 1.0397223 1.3476826 0.98008853
1.000104 1.0 1.0 1.033663 1.0289444 1.032941 1.3329662 0.9771283
1.0272114 1.0022441 0.9967524 1.0313687 1.1078577 1.0 0.99435097 1.2341374
1.0014598 1.0 0.98872465 1.0332937 0.9998336 0.99908453 1.003104 1.0179901
-0.017717076 -0.0033183729 0.014249531 0.00614105 -0.008136057 0.0162267 0.018291939 0.0
0.043188423 0.0 0.08910474 0.05982968 0.0 0.019864436 -0.030728055 0.0076619587
-0.0132962465 -0.009746028 0.008628554 -0.021410719 0.015426258 0.034470264 -0.0034882186 0.011082059
0.022946663 0.0 0.048984136 0.016370121 -0.0005981845 0.0 -0.0049961642 0.02247866
0.00845813 -0.0024972337 -0.013266943 -0.015393677 -0.004463977 0.009339397 0.0010180722 0.0751279
-0.02744201 0.0 0.0 0.021717133 0.008033368 0.060003176 -0.0044076303 0.0046586795
0.017868752 0.0063032308 -0.010602846 0.01608045 0.031439766 -0.030023653 -0.020059464 -0.014943153
-0.0002795759 0.0 -0.010921911 0.01525902 -0.025695868 -0.018567206 -0.011956519 -0.04076013
-0.020021467 -0.0066577303 0.033595257 0.07279591 -0.0026458076 0.013688956 0.015793769 0.0
0.07548641 0.0 0.10824737 0.03186174 0.0 0.011241704 -0.025809873 0.020101042
0.1201326 -0.011134226 0.18700075 -0.026185144 0.011135369 0.11420482 -0.006452748 0.011624638
0.019415814 0.0 0.06401619 0.013591301 0.048956137 0.0 0.014303864 0.013412866
0.013610692 0.245521 -0.011692465 0.3762298 0.42743713 0.016051408 0.40777722 0.07942752
-0.00038684704 0.0 0.0 0.008955581 0.009345122 0.056254428 0.35542744 0.14354609
0.0042043906 -0.005308721 -0.0044179535 0.008073845 0.0549026 -0.0010597046 -0.015069392 0.2556987
0.066567086 0.0 -0.009892669 0.0122023 -0.000103640145 -7.677042e-05 0.068311855 0.047480304
00000000: f72c a4bc a08c d2bb 649a 083d dff0 913d
00000010: 7528 2bbb 967a 583c 5797 5d3c 0000 0000
00000020: 6d38 9b3d 0000 0000 b79b dc3d 121f 033d
00000030: 0000 0000 2b85 6b3c 56b7 d5bc 42b1 b03c
00000040: a1b9 fa3d 43ce 35bc ddbb 3e3e bca6 d6bc
00000050: 5a44 233c 1e76 e53d cd44 d1bb cd7d 253c
00000060: 2a72 a43c 0000 0000 b08d 823d ea04 403c
00000070: ecdc 4b3d 0000 0000 4757 673c 55fa 6d3c
00000080: ebe1 443c e733 733e 31fb 3fbc e223 b13e
00000090: 046f c93e 0763 863c f2fb ba3e 9060 a33d
000000a0: 7157 cab9 0000 0000 0000 0000 dab6 db3b
000000b0: b5e1 393c 72c8 623d c9cc a63e f3e8 103e
000000c0: 4a04 ec3b bd7a ecbb e0bf 92bb 0b12 f93b
000000d0: 8bb8 573d 58c1 8bba 5fe4 76bc 382a 783e
000000e0: e19f 9f3d 0000 0000 6c0c 22bc ec85 1d3c
000000f0: 3f5e d7b8 09fa 9eb8 357e 893d b18a 333d
00000100: 2390 7a3f cc4d 7f3f a959 893f dad2 913f
00000110: 9091 7f3f b640 843f 1fcd 853f 0000 803f
00000120: 9c26 733f 0000 803f 69e9 8c3f 6e64 853f
00000130: 0000 803f ffbe 843f c0fc 793f 0b2d 863f
00000140: 5507 813f a9e7 7e3f 1b0a 8b3f da68 7a3f
00000150: 0104 843f 5e6b 8f3f c848 7e3f 7f30 843f
00000160: 9787 853f 0000 803f 8301 8a3f 7bf8 833f
00000170: 7b98 6e3f 0000 803f 4ed7 713f 3466 843f
00000180: 1d70 833f eae2 9a3f 0d48 7d3f 47d6 aa3f
00000190: 1940 b23f 9f15 853f dd80 ac3f 15e7 7a3f
000001a0: 6803 803f 0000 803f 0000 803f 124f 843f
000001b0: 73b4 833f 6937 843f a39e aa3f 1525 7a3f
000001c0: aa7b 833f 8949 803f 2a2b 7f3f e403 843f
000001d0: 48ce 8d3f 0000 803f c98d 7e3f 37f8 9d3f
000001e0: d62f 803f 0000 803f 0f1d 7d3f f842 843f
000001f0: 18f5 7f3f 01c4 7f3f b665 803f 804d 823f
00000200: 6723 91bc 0f79 59bb dd76 693c dc3a c93b
00000210: 194d 05bc dbed 843c fad8 953c 0000 0000
00000220: 58e6 303d 0000 0000 8c7c b63d f70f 753d
00000230: 0000 0000 beba a23c 67b9 fbbc 2b11 fb3b
00000240: 80d8 59bc cead 1fbc c75e 0d3c 8865 afbc
00000250: 6abe 7c3c b130 0d3d 999a 64bb 8691 353c
00000260: a4fa bb3c 0000 0000 97a3 483d a21a 863c
00000270: 7bcf 1cba 0000 0000 ddb6 a3bb 2b25 b83c
00000280: f893 0a3c a1a8 23bb 985d 59bc c335 7cbc
00000290: 8e46 92bb 4504 193c d670 853a a8dc 993d
000002a0: 11ce e0bc 0000 0000 0000 0000 21e8 b13c
000002b0: 639e 033c e4c5 753d e26d 90bb d6a7 983b
000002c0: 7d61 923c 558b ce3b 8fb7 2dbc 26bb 833c
000002d0: fcc6 003d 2af4 f5bc bf53 a4bc 20d4 74bc
000002e0: 0b94 92b9 0000 0000 d1f1 32bc f800 7a3c
000002f0: 2480 d2bc 411a 98bc 47e5 43bc 18f4 26bd
00000300: 0f04 a4bc 1729 dabb 2e9b 093d 0616 953d
00000310: 4965 2dbb a547 603c ef61 813c 0000 0000
00000320: 9e98 9a3d 0000 0000 ccb0 dd3d 7581 023d
00000330: 0000 0000 202f 383c 3a6f d3bc f1aa a43c
00000340: 1508 f63d 546c 36bc 207d 3f3e 3a82 d6bc
00000350: 1f71 363c 37e4 e93d 9371 d3bb 4475 3e3c
00000360: ea0d 9f3c 0000 0000 ec1a 833d 0cae 5e3c
00000370: 3b86 483d 0000 0000 c15a 6a3c a3c1 5b3c
00000380: 61ff 5e3c db69 7b3e c191 3fbc 31a1 c03e
00000390: 0ad9 da3e 3e7e 833c 2dc8 d03e e5aa a23d
000003a0: bbd1 cab9 0000 0000 0000 0000 6eba 123c
000003b0: 481c 193c 0b6b 663d 96fa b53e bffd 123e
000003c0: fcc4 893b c8f4 adbb 7bc4 90bb 2948 043c
000003d0: 8ce1 603d c9e5 8aba 9ce5 76bc f1ea 823e
000003e0: 5354 883d 0000 0000 dc14 22bc 28ec 473c
000003f0: 6159 d9b8 ceff a0b8 16e7 8b3d b57a 423d

sequential_11/lstm_11/while/lstm_cell_11/MatMul_1 f4 [256, 64]
0.044902936 0.005690301 -0.046598632 -0.022249838 -0.0061497255 -0.15699248 -0.10294521 0.036602378
-0.010865408 0.0108935535 0.009376999 -0.16763765 -0.09635536 0.060716365 -0.007280824 -0.12797873
0.030831063 0.10714734 0.025845943 -0.015087762 0.05247855 -0.04743022 -0.027932387 0.034889143
0.04989498 0.061799984 -0.04228738 -0.08446933 -0.09522484 -0.13972071 -0.023030093 -0.1371957
0.026586048 0.054158967 0.056914903 0.012641997 -0.099130064 0.029098045 0.06834731 -0.024395477
0.07818179 -0.02692843 -0.05663015 0.020692015 -0.011281115 0.032072388 0.11087277 -0.050878055
-0.021427883 -0.021740912 0.06487033 -0.1313394 -0.07182958 0.06930479 0.0678219 -0.015533109
-0.09131644 -0.0029949695 0.041944608 0.11399083 0.022730852 0.03925792 -0.10326177 0.058243655
-0.02216845 -0.03623981 0.003586503 -0.04887585 0.022327375 -0.0074514407 0.056524947 0.05548446
-0.016201286 0.011946142 0.023696354 0.009123375 0.06469848 0.036564626 0.09171666 -0.025448186
0.043643888 -0.010707041 0.07126935 -0.025104025 0.02988842 -0.07795137 -0.124133155 -0.048441168
-0.11766248 -0.0060712313 0.008730116 -0.03062551 -0.021315387 -0.03319332 -0.021138145 0.014267426
0.006492231 -0.011707601 0.013982298 -0.100049466 -0.011034996 -0.04460184 0.13805787 0.015018666
0.01246018 -0.077745184 -0.0507255 0.04208451 0.023177005 0.010243715 0.020470563 0.08544406
-0.012555289 0.046104487 0.15775894 -0.037570294 -0.07888407 0.091632165 0.008809726 -0.06388639
0.10024449 -0.058231335 -0.042086016 -0.0755241 -0.08353561 0.055540413 0.04728499 0.012433009
0.018173467 -0.028628195 -0.07932123 0.040095657 0.019083913 -0.073570825 0.033750836 0.011046734
-0.0397061 0.03197864 0.01914843 0.03028867 0.022694984 -0.077448525 0.22506897 -0.024654448
-0.10810958 0.012216436 0.06294886 0.044776402 -0.041828264 0.09554435 -0.09020903 -0.013373673
-0.06450033 0.057310894 0.04540614 -0.15629487 -0.026542777 0.045805782 0.034662638 -0.086661145
-0.0019988185 0.3242226 -0.10338625 0.015773572 0.18712692 -0.05943488 0.21768086 0.052338988
0.11236623 0.032431353 0.0117514 -0.087828115 -0.04678983 -0.00010180076 0.21953999 -0.14273557
0.008562293 -0.052931298 0.0018138035 -0.06456002 -0.013785904 0.15549551 -0.053852282 0.21577303
-0.1488014 0.06495188 0.023697732 -0.09486866 0.11791964 0.05478355 -0.1758347 -0.10646185
-0.00229819 -0.029163504 0.07526176 0.09248098 -0.026860427 -0.0105422065 0.087762564 -0.031345725
0.0016277725 0.0027536901 -0.0008835231 -0.10837682 0.0042295675 -0.10753474 0.050867654 -0.101636335
0.025155185 -0.083383925 0.12359475 0.040083826 0.027688846 0.16449142 0.084272705 0.011197101
-0.048616115 0.09233927 0.022180734 -0.08082694 -0.09051551 -0.085360765 -0.044703025 -0.033180576
-0.04120133 0.3140035 0.0061180736 0.1594131 0.42172977 -0.03337514 0.08877544 -0.111291856
0.027297173 0.06856522 -0.09591895 0.034799162 0.07120307 -0.112283215 0.32266602 -0.032924425
0.08184944 0.020790933 0.07470372 0.054091122 -0.02855938 0.0076318295 0.108227745 0.20554443
0.037922572 0.01825014 -0.10055477 -0.0997414 -0.08068771 0.02497751 -0.15314318 0.022974659
00000000: 24ec 373d b475 ba3b 35de 3ebd 4b45 b6bc
00000010: a383 c9bb a3c2 20be f0d4 d2bd 60ec 153d
00000020: d304 32bc e07a 323c fca1 193c 34a9 2bbe
00000030: f555 c5bd b9b1 783d fa93 eebb db0c 03be
00000040: 6d91 fc3c 1170 db3d dfba d33c a932 77bc
00000050: bff3 563d 3146 42bd 76d2 e4bc ebe7 0e3d
00000060: ae5e 4c3d fb21 7d3d 8835 2dbd 42fe acbd
00000070: 3e05 c3bd f212 0fbe 9ba9 bcbc 087d 0cbe
00000080: fcca d93c cbd5 5d3d 9a1f 693d 6120 4f3c
00000090: b404 cbbd 065f ee3c adf9 8b3d 06d9 c7bc
000000a0: c61d a03d 0399 dcbc 04f5 67bd 4d82 a93c
000000b0: 6dd4 38bc 565e 033d 4311 e33d 8265 50bd
000000c0: 8789 afbc ff19 b2bc bcda 843d d67d 06be
000000d0: 631b 93bd abef 8d3d 35e6 8a3d 957e 7ebc
000000e0: 1d04 bbbd 4047 44bb 1cce 2b3d 0674 e93d
000000f0: 0d36 ba3c eacc 203d e87a d3bd e690 6e3d
00000100: 9c9a b5bc 3270 14bd 890b 6b3b 0b32 48bd
00000110: e6e7 b63c 372b f4bb b486 673d ac43 633d
00000120: 8fb8 84bc c0b9 433c db1e c23c 357a 153c
00000130: a380 843d cac4 153d f2d5 bb3d b778 d0bc
00000140: efc3 323d 966c 2fbc aaf5 913d f5a6 cdbc
00000150: 8fd8 f43c f8a4 9fbd 8639 febd 3f6a 46bd
00000160: 07f9 f0bd 2ef1 c6bb c308 0f3c 59e2 fabc
00000170: 9b9d aebc b8f5 07bd e729 adbc ecc1 693c
00000180: c8bc d43b 3dd1 3fbc 0216 653c bce6 ccbd
00000190: 21cc 34bc 6bb0 36bd 0b5f 0d3e da10 763c
000001a0: c825 4c3c de38 9fbd 8bc5 4fbd cf60 2c3d
000001b0: b4dd bd3c 41d5 273c e2b1 a73c 4cfd ae3d
000001c0: b3b4 4dbc 0fd8 3c3d 8f8b 213e 4fe3 19bd
000001d0: f98d a1bd a5a9 bb3d ab56 103c ded6 82bd
000001e0: fc4c cd3d fb83 6ebd 6362 2cbd 61ac 9abd
000001f0: b814 abbd 587e 633d e8ad 413d d2b3 4b3c
00000200: 86e0 943c ad85 eabc 2b73 a2bd 583b 243d
00000210: de55 9c3c 4dac 96bd 513e 0a3d 5cfd 343c
00000220: dda2 22bd 09fc 023d 2bdd 9c3c f21f f83c
00000230: d5ea b93c 559d 9ebd 7b78 663e 20f8 c9bc
00000240: 8e68 ddbd 7227 483c 55eb 803d 7667 373d
00000250: 1d54 2bbd c2ac c33d 83bf b8bd 401d 5bbc
00000260: c018 84bd d4be 6a3d cafb 393d c30b 20be
00000270: 3d70 d9bc d89e 3b3d 69fa 0d3d 667b b1bd
00000280: 9cfe 02bb 8100 a63e 2cbc d3bd 9437 813c
00000290: 339e 3f3e fd71 73bd bbe7 5e3e 6861 563d
000002a0: 4420 e63d bdd6 043d f288 403c 3adf b3bd
000002b0: b1a6 3fbd de7d d5b8 17cf 603e 4629 12be
000002c0: dc48 0c3c 7dce 58bd 25bd ed3a 0b38 84bd
000002d0: 46de 61bc 373a 1f3e 3694 5cbd 9bf3 5c3e
000002e0: 655f 18be 7e05 853d bf21 c23c 804a c2bd
000002f0: da7f f13d b764 603d 030e 34be ac08 dabd
00000300: 3b9d 16bb 4de8 eebc d622 9a3d ab66 bd3d
00000310: 660a dcbc 38b9 2cbc dcbc b33d 6064 00bd
00000320: fb5a d53a 4177 343b 3b9c 67ba abf4 ddbd
00000330: 2f98 8a3b 2c3b dcbd 9a5a 503d b626 d0bd
00000340: 3f12 ce3c 31c5 aabd 3f1f fd3d f02e 243d
00000350: b8d3 e23c 7070 283e 2b97 ac3d 0c74 373c
00000360: b121 47bd 5f1c bd3d 5fb4 b53c 9888 a5bd
00000370: 3260 b9bd a0d1 aebd 851a 37bd 5be8 07bd
00000380: bac2 28bd 11c5 a03e 1f7a c83b 303d 233e
00000390: f7ec d73e 5fb4 08bd e6cf b53d fcec e3bd
000003a0: 529e df3c ec6b 8c3d 2871 c4bd 9189 0e3d
000003b0: ead2 913d bef4 e5bd 7b34 a53e c3db 06bd
000003c0: aea0 a73d bf51 aa3c 44fe 983d a78e 5d3d
000003d0: 5cf5 e9bc 6d14 fa3b 82a6 dd3d 3d7a 523e
000003e0: b354 1b3d 5181 953c a9ef cdbd 3845 ccbd
000003f0: 993f a5bd a39d cc3c 91d1 1cbe 5a35 bc3c

sequential_11/lstm_11/while/lstm_cell_11/MatMul f4 [256, 1]
-0.1443107 0.08571863 0.06183976 -0.041778672 -0.03705666 0.060996763 -0.18105622 0.080411464
0.01994752 -0.13479263 0.08796881 -0.12100411 -0.07780588 0.04390757 0.06142191 -0.005431863
0.17789154 -0.06860635 0.2608521 0.061104286 -0.07264482 0.019709084 0.11175738 -0.015834557
-0.01228483 -0.08573847 -0.038376596 -0.17115504 -0.031801898 -0.029258117 -0.153129 0.03328118
-0.15347514 0.34744835 -0.05704337 0.28767315 0.32769737 -0.038846638 0.54686534 0.08005139
0.044219926 0.038710684 -0.12015915 -0.194819 0.122187085 -0.051305085 0.26786795 0.12322159
0.02291136 -0.21349978 -0.15188606 0.06526795 -0.16677958 -0.11363919 -0.030123869 0.18672255
0.0697094 0.010890856 -0.08817226 -0.018399691 0.095800556 0.13121837 0.1878131 0.2202789
0.04693271 -0.1047535 -0.11428838 0.07832211 0.11868781 -0.1139325 0.12696677 0.12758516
0.108308956 0.1249059 0.26564187 0.15000011 -0.11437143 -0.056094974 0.057621684 0.14214976
-0.04673727 -0.07387616 -0.07011194 0.12663426 0.06551233 0.116493806 -0.10969817 -0.082764044
-0.08629242 0.03919694 -0.0943843 -0.04555323 -0.25937173 -0.067220286 -0.20842914 0.023436917
0.10336525 -0.10265447 -0.023429058 0.20962964 0.27261913 -0.10722524 0.10853822 -0.034815162
-0.091849945 0.09335552 0.004491493 -0.078778364 0.014590906 -0.14437844 0.18212429 -0.22590344
-0.054094773 -0.10407606 0.09054532 -0.0181146 -0.01238213 0.023816332 -0.01554771 0.06440996
0.16645062 0.07970503 -0.06151975 0.12623724 -0.11835833 -0.0010831995 0.12609418 0.024299541
-0.04795185 -0.060134847 -0.09741009 -0.11965123 -0.15710264 0.14071403 0.057805922 -0.14403373
0.08907606 -0.14435236 0.04330706 -0.0943903 -0.12882459 0.023698255 0.011270774 0.070753135
0.16949612 -0.103958696 0.13181196 -0.016103966 0.084118284 -0.17588739 -0.076202534 0.10689578
0.022462022 -0.149406 -0.12050706 0.062163338 0.11780496 -0.047433063 -0.13924238 0.14442272
0.05106468 0.14830133 -0.024093244 0.17350635 0.18718004 0.08481725 0.19473381 0.0483826
-0.025663624 -0.082227245 -0.06326452 0.052119717 0.11742592 -0.10898088 0.19815865 0.14028142
0.12475116 0.015436689 -0.069079615 0.09218207 -0.17362578 -0.09270602 -0.08903304 0.18307151
0.19138876 -0.12838401 0.01075852 0.1240813 -0.061638433 -0.0463518 0.24226749 0.14966178
-0.14160089 -0.13929437 -0.0024475758 -0.08114873 -0.15176652 0.046179608 0.08466569 0.062518775
0.2132646 0.0080691725 0.073779084 -0.13910773 0.07714453 -0.12420999 -0.09227732 -0.1751477
0.055255774 -0.13594383 -0.047755238 0.022750493 0.017792096 0.07653936 -0.026327522 0.07551608
-0.03300222 -0.037785962 -0.03599353 -0.060250886 -0.08629212 -0.09955314 -0.053985044 -0.10761969
-0.10651442 -0.020563284 -0.10895778 0.30956522 0.26493993 -0.009829175 0.36084113 0.03923027
0.040366042 -0.040758878 -0.035778716 0.051567934 -0.07848556 0.04443999 0.35503927 0.18062626
-0.19973983 -0.040893238 -0.10953956 -0.0064934976 -0.0022229203 0.013789003 -0.05527499 0.23738934
0.16763817 0.08922459 -0.117826946 0.04594893 0.03939485 -0.045755938 0.023829356 -0.1060729
00000000: 2fc6 13be 408d af3d b04b 7d3d 1d20 2bbd
00000010: b9c8 17bd bed7 793d cd66 39be c4ae a43d
00000020: fb68 a33c 1407 0abe fe28 b43d 01d1 f7bd
00000030: b058 9fbd 6dd8 333d 8a95 7b3d c5fd b1bb
00000040: 3329 363e 7c81 8cbd 688e 853e 7d48 7a3d
00000050: cfc6 94bd f274 a13c 0ee1 e43d 79b7 81bc
00000060: 5046 49bc a797 afbd c730 1dbd 4443 2fbe
00000070: b542 02bd b8ae efbc d9cd 1cbe d951 083d
00000080: 9628 1dbe c0e4 b13e 4fa6 69bd e549 933e
00000090: f3c7 a73e a71d 1fbd 5eff 0b3f fcf1 a33d
000000a0: f41f 353d 188f 1e3d 0016 f6bd a27e 47be
000000b0: 393d fa3d 4825 52bd fd25 893e 9a5b fc3d
000000c0: 9bb0 bb3c b09f 5abe 0588 1bbe 34ab 853d
000000d0: 44c8 2abe aabb e8bd 55c6 f6bc 3234 3f3e
000000e0: cdc3 8e3d 906f 323c a893 b4bd f3ba 96bc
000000f0: 1533 c43d 1c5e 063e 1452 403e cb90 613e
00000100: 833c 403d 0189 d6bd 0710 eabd 5867 a03d
00000110: 9812 f33d 7155 e9bd 9403 023e afa5 023e
00000120: 16d1 dd3d aace ff3d 3602 883e a199 193e
00000130: 913b eabd d8c3 65bd b704 6c3d b58f 113e
00000140: 946f 3fbd 624c 97bd d996 8fbd 69ac 013e
00000150: 542b 863d 4e94 ee3d 6fa9 e0bd 3280 a9bd
00000160: 15ba b0bd f88c 203d 8e4c c1bd 0696 3abd
00000170: 5fcc 84be caaa 89bd 736e 55be c7fe bf3c
00000180: 29b1 d33d 823c d2bd 4cee bfbc 27a9 563e
00000190: bc94 8b3e e898 dbbd 4949 de3d 589a 0ebd
000001a0: d31b bcbd 2e31 bf3d 602d 933b 8d56 a1bd
000001b0: b20e 6f3c f1d7 13be ca7e 3a3e 3b53 67be
000001c0: 7b92 5dbd d425 d5bd d36f b93d 1265 94bc
000001d0: 6bde 4abc 781a c33c d2bb 7ebc 5ee9 833d
000001e0: 0872 2a3e 643c a33d 22fc 7bbd 5644 013e
000001f0: da65 f2bd 25fa 8dba d51e 013e d50f c73c
00000200: 2969 44bd f54f 76bd f17e c7bd b40b f5bd
00000210: 84df 20be 5717 103e e7c5 6c3d 947d 13be
00000220: 826d b63d 1bd1 13be be62 313d b44f c1bd
00000230: 98ea 03be d822 c23c 0da9 383c 05e7 903d
00000240: 6490 2d3e 4ce8 d4bd b7f9 063e 77ec 83bc
00000250: 3546 ac3d d31b 34be 1310 9cbd 2dec da3d
00000260: 4602 b83c e3fd 18be 68cc f6bd fc9e 7e3d
00000270: ba43 f13d 2c49 42bd 8e95 0ebe 8de3 133e
00000280: 3329 513d 4edc 173e 325f c5bc a6ab 313e
00000290: 20ac 3f3e abb4 ad3d 4d68 473e d52c 463d
000002a0: 853c d2bc c266 a8bd d490 81bd 7c7b 553d
000002b0: 007d f03d 5e31 dfbd 1aea 4a3e efa5 0f3e
000002c0: 897d ff3d 2bea 7c3c 9d79 8dbd f4c9 bc3d
000002d0: f5ca 31be a7dc bdbd f456 b6bd 1977 3b3e
000002e0: 6afb 433e 1977 03be 8144 303c 561e fe3d
000002f0: 9578 7cbd 63db 3dbd f814 783e f040 193e
00000300: d3ff 10be 2fa3 0ebe 8267 20bb 4e31 a6bd
00000310: af68 1bbe d426 3d3d 3565 ad3d d809 803d
00000320: 0962 5a3e 9034 043c 7d19 973d 4272 0ebe
00000330: f4fd 9d3d cf61 febd e4fb bcbd eb59 33be
00000340: e153 623d dc34 0bbe ff9a 43bd 3e5f ba3c
00000350: bbc0 913c abc0 9c3d d1ac d7bc 2da8 9a3d
00000360: 562d 07bd 74c5 1abd f46d 13bd a2c9 76bd
00000370: ecb9 b0bd 84e2 cbbd 6c1f 5dbd b667 dcbd
00000380: 3b24 dabd 5574 a8bc 4225 dfbd 557f 9e3e
00000390: 35a6 873e 8c0a 21bc 2bc0 b83e ebaf 203d
000003a0: dd56 253d c8f2 26bd b48c 12bd e638 533d
000003b0: 0abd a0bd b506 363d b5c7 b53e 17f6 383e
000003c0: 9988 4cbe ab7f 27bd 4756 e0bd 68c7 d4bb
000003d0: 6aae 11bb 45eb 613c 0768 62bd 3116 733e
000003e0: 57a9 2b3e 62bb b63d 414f f1bd f234 3c3d
000003f0: 7f5c 213d 946a 3bbd c835 c33c c03c d9bd
